…
name_group_params.group2.conv2.w
name_group_params.group2.dense_t1.bias
name_group_params.group2.dense_t1.weight
name_group_params.group2.skip.w
name_group_params.group3.conv1.b
name_group_params.group3.conv1.w
name_group_params.group3.conv2.b
name_group_params.group3.conv2.w
name_group_params.group3.dense_t1.bias
name_group_params.group3.dense_t1.weight
name_group_params.group3.skip.w
name_start_conv.b
name_start_conv.w
name_t_emb.dense.dense0.bias
name_t_emb.dense.dense0.weight
name_t_emb.dense.dense1.bias
name_t_emb.dense.dense1.weight

(t_embed): TimestepEmbedding(
    (main): Sequential(
      (0): Linear(in_features=256, out_features=256, bias=True)
      (1): LeakyReLU(negative_slope=0.2)
      (2): Linear(in_features=256, out_features=256, bias=True)
    )
  )
  (start_conv): Conv2d(6, 128, kernel_size=(1, 1), stride=(1, 1))
  (conv1): DownConvBlock(
    (conv1): Sequential(
      (0): Conv2d(128, 256, kernel_size=(3, 3), stride=(1, 1), padding=(1, 1))
    )
    (conv2): Sequential(
      (0): Conv2d(256, 256, kernel_size=(3, 3), stride=(1, 1), padding=(1, 1))
    )
    (dense_t1): Linear(in_features=256, out_features=256, bias=True)
    (act): LeakyReLU(negative_slope=0.2)
    (skip): Sequential(
      (0): Conv2d(128, 256, kernel_size=(1, 1), stride=(1, 1), bias=False)
    )
  )
  (conv2): DownConvBlock(
    (conv1): Sequential(
      (0): Conv2d(256, 512, kernel_size=(3, 3), stride=(1, 1), padding=(1, 1))
    )
    (conv2): Sequential(
      (0): Conv2d(512, 512, kernel_size=(3, 3), stride=(1, 1), padding=(1, 1))
    )
    (dense_t1): Linear(in_features=256, out_features=512, bias=True)
    (act): LeakyReLU(negative_slope=0.2)
    (skip): Sequential(
      (0): Conv2d(256, 512, kernel_size=(1, 1), stride=(1, 1), bias=False)
    )
  )
  (conv3): DownConvBlock(
    (conv1): Sequential(
      (0): Conv2d(512, 512, kernel_size=(3, 3), stride=(1, 1), padding=(1, 1))
    )
    (conv2): Sequential(
      (0): Conv2d(512, 512, kernel_size=(3, 3), stride=(1, 1), padding=(1, 1))
    )
    (dense_t1): Linear(in_features=256, out_features=512, bias=True)
    (act): LeakyReLU(negative_slope=0.2)
    (skip): Sequential(
      (0): Conv2d(512, 512, kernel_size=(1, 1), stride=(1, 1), bias=False)
    )
  )
  (conv4): DownConvBlock(
    (conv1): Sequential(
      (0): Conv2d(512, 512, kernel_size=(3, 3), stride=(1, 1), padding=(1, 1))
    )
    (conv2): Sequential(
      (0): Conv2d(512, 512, kernel_size=(3, 3), stride=(1, 1), padding=(1, 1))
    )
    (dense_t1): Linear(in_features=256, out_features=512, bias=True)
    (act): LeakyReLU(negative_slope=0.2)
    (skip): Sequential(
      (0): Conv2d(512, 512, kernel_size=(1, 1), stride=(1, 1), bias=False)
    )
  )
    (final_conv): Conv2d(513, 512, kernel_size=(3, 3), stride=(1, 1), padding=(1, 1))
  (end_linear): Linear(in_features=512, out_features=1, bias=True)
))

epoch 0 iteration0, G Loss: 0.6094955801963806, D Loss: 1.4430005550384521
epoch 0 iteration100, G Loss: 0.6094955801963806, D Loss: 1.4430005550384521
epoch 0 iteration200, G Loss: 0.6094955801963806, D Loss: 1.4430005550384521
epoch 0 iteration300, G Loss: 0.6094955801963806, D Loss: 1.4430005550384521
epoch 0 iteration400, G Loss: 0.6094955801963806, D Loss: 1.4430005550384521
…
